18:49:02 INFO - logger_setup: /home/aauconnectivity/HIFIC/high-fidelity-generative-compression/src/model.py
18:49:02 INFO - <module>: Using device cpu
18:49:03 INFO - __init__: GAN mode enabled. Training discriminator for 1 steps.
18:49:27 INFO - <module>: Model(
  (Encoder): Encoder(
    (pre_pad): ReflectionPad2d((3, 3, 3, 3))
    (asymmetric_pad): ReflectionPad2d((0, 1, 1, 0))
    (post_pad): ReflectionPad2d((1, 1, 1, 1))
    (conv_block1): Sequential(
      (0): ReflectionPad2d((3, 3, 3, 3))
      (1): Conv2d(3, 60, kernel_size=(7, 7), stride=(1, 1))
      (2): ChannelNorm2D()
      (3): ReLU()
    )
    (conv_block2): Sequential(
      (0): ReflectionPad2d((0, 1, 1, 0))
      (1): Conv2d(60, 120, kernel_size=(3, 3), stride=(2, 2), padding_mode=reflect)
      (2): ChannelNorm2D()
      (3): ReLU()
    )
    (conv_block3): Sequential(
      (0): ReflectionPad2d((0, 1, 1, 0))
      (1): Conv2d(120, 240, kernel_size=(3, 3), stride=(2, 2), padding_mode=reflect)
      (2): ChannelNorm2D()
      (3): ReLU()
    )
    (conv_block4): Sequential(
      (0): ReflectionPad2d((0, 1, 1, 0))
      (1): Conv2d(240, 480, kernel_size=(3, 3), stride=(2, 2), padding_mode=reflect)
      (2): ChannelNorm2D()
      (3): ReLU()
    )
    (conv_block5): Sequential(
      (0): ReflectionPad2d((0, 1, 1, 0))
      (1): Conv2d(480, 960, kernel_size=(3, 3), stride=(2, 2), padding_mode=reflect)
      (2): ChannelNorm2D()
      (3): ReLU()
    )
    (conv_block_out): Sequential(
      (0): ReflectionPad2d((1, 1, 1, 1))
      (1): Conv2d(960, 220, kernel_size=(3, 3), stride=(1, 1))
    )
  )
  (Generator): Generator(
    (pre_pad): ReflectionPad2d((1, 1, 1, 1))
    (asymmetric_pad): ReflectionPad2d((0, 1, 1, 0))
    (post_pad): ReflectionPad2d((3, 3, 3, 3))
    (conv_block_init): Sequential(
      (0): ChannelNorm2D()
      (1): ReflectionPad2d((1, 1, 1, 1))
      (2): Conv2d(220, 960, kernel_size=(3, 3), stride=(1, 1))
      (3): ChannelNorm2D()
    )
    (resblock_0): ResidualBlock(
      (pad): ReflectionPad2d((1, 1, 1, 1))
      (conv1): Conv2d(960, 960, kernel_size=(3, 3), stride=(1, 1))
      (conv2): Conv2d(960, 960, kernel_size=(3, 3), stride=(1, 1))
      (norm1): ChannelNorm2D()
      (norm2): ChannelNorm2D()
    )
    (resblock_1): ResidualBlock(
      (pad): ReflectionPad2d((1, 1, 1, 1))
      (conv1): Conv2d(960, 960, kernel_size=(3, 3), stride=(1, 1))
      (conv2): Conv2d(960, 960, kernel_size=(3, 3), stride=(1, 1))
      (norm1): ChannelNorm2D()
      (norm2): ChannelNorm2D()
    )
    (resblock_2): ResidualBlock(
      (pad): ReflectionPad2d((1, 1, 1, 1))
      (conv1): Conv2d(960, 960, kernel_size=(3, 3), stride=(1, 1))
      (conv2): Conv2d(960, 960, kernel_size=(3, 3), stride=(1, 1))
      (norm1): ChannelNorm2D()
      (norm2): ChannelNorm2D()
    )
    (resblock_3): ResidualBlock(
      (pad): ReflectionPad2d((1, 1, 1, 1))
      (conv1): Conv2d(960, 960, kernel_size=(3, 3), stride=(1, 1))
      (conv2): Conv2d(960, 960, kernel_size=(3, 3), stride=(1, 1))
      (norm1): ChannelNorm2D()
      (norm2): ChannelNorm2D()
    )
    (resblock_4): ResidualBlock(
      (pad): ReflectionPad2d((1, 1, 1, 1))
      (conv1): Conv2d(960, 960, kernel_size=(3, 3), stride=(1, 1))
      (conv2): Conv2d(960, 960, kernel_size=(3, 3), stride=(1, 1))
      (norm1): ChannelNorm2D()
      (norm2): ChannelNorm2D()
    )
    (resblock_5): ResidualBlock(
      (pad): ReflectionPad2d((1, 1, 1, 1))
      (conv1): Conv2d(960, 960, kernel_size=(3, 3), stride=(1, 1))
      (conv2): Conv2d(960, 960, kernel_size=(3, 3), stride=(1, 1))
      (norm1): ChannelNorm2D()
      (norm2): ChannelNorm2D()
    )
    (resblock_6): ResidualBlock(
      (pad): ReflectionPad2d((1, 1, 1, 1))
      (conv1): Conv2d(960, 960, kernel_size=(3, 3), stride=(1, 1))
      (conv2): Conv2d(960, 960, kernel_size=(3, 3), stride=(1, 1))
      (norm1): ChannelNorm2D()
      (norm2): ChannelNorm2D()
    )
    (resblock_7): ResidualBlock(
      (pad): ReflectionPad2d((1, 1, 1, 1))
      (conv1): Conv2d(960, 960, kernel_size=(3, 3), stride=(1, 1))
      (conv2): Conv2d(960, 960, kernel_size=(3, 3), stride=(1, 1))
      (norm1): ChannelNorm2D()
      (norm2): ChannelNorm2D()
    )
    (resblock_8): ResidualBlock(
      (pad): ReflectionPad2d((1, 1, 1, 1))
      (conv1): Conv2d(960, 960, kernel_size=(3, 3), stride=(1, 1))
      (conv2): Conv2d(960, 960, kernel_size=(3, 3), stride=(1, 1))
      (norm1): ChannelNorm2D()
      (norm2): ChannelNorm2D()
    )
    (upconv_block1): Sequential(
      (0): ConvTranspose2d(960, 480, kernel_size=(3, 3), stride=(2, 2), padding=(1, 1), output_padding=(1, 1))
      (1): ChannelNorm2D()
      (2): ReLU()
    )
    (upconv_block2): Sequential(
      (0): ConvTranspose2d(480, 240, kernel_size=(3, 3), stride=(2, 2), padding=(1, 1), output_padding=(1, 1))
      (1): ChannelNorm2D()
      (2): ReLU()
    )
    (upconv_block3): Sequential(
      (0): ConvTranspose2d(240, 120, kernel_size=(3, 3), stride=(2, 2), padding=(1, 1), output_padding=(1, 1))
      (1): ChannelNorm2D()
      (2): ReLU()
    )
    (upconv_block4): Sequential(
      (0): ConvTranspose2d(120, 60, kernel_size=(3, 3), stride=(2, 2), padding=(1, 1), output_padding=(1, 1))
      (1): ChannelNorm2D()
      (2): ReLU()
    )
    (conv_block_out): Sequential(
      (0): ReflectionPad2d((3, 3, 3, 3))
      (1): Conv2d(60, 3, kernel_size=(7, 7), stride=(1, 1))
    )
  )
  (Hyperprior): Hyperprior(
    (analysis_net): HyperpriorAnalysis(
      (conv1): Conv2d(220, 320, kernel_size=(3, 3), stride=(1, 1), padding=(1, 1))
      (conv2): Conv2d(320, 320, kernel_size=(5, 5), stride=(2, 2), padding=(2, 2), padding_mode=reflect)
      (conv3): Conv2d(320, 320, kernel_size=(5, 5), stride=(2, 2), padding=(2, 2), padding_mode=reflect)
    )
    (synthesis_mu): HyperpriorSynthesis(
      (conv1): ConvTranspose2d(320, 320, kernel_size=(5, 5), stride=(2, 2), padding=(2, 2), output_padding=(1, 1))
      (conv2): ConvTranspose2d(320, 320, kernel_size=(5, 5), stride=(2, 2), padding=(2, 2), output_padding=(1, 1))
      (conv3): ConvTranspose2d(320, 220, kernel_size=(3, 3), stride=(1, 1), padding=(1, 1))
    )
    (synthesis_std): HyperpriorSynthesis(
      (conv1): ConvTranspose2d(320, 320, kernel_size=(5, 5), stride=(2, 2), padding=(2, 2), output_padding=(1, 1))
      (conv2): ConvTranspose2d(320, 320, kernel_size=(5, 5), stride=(2, 2), padding=(2, 2), output_padding=(1, 1))
      (conv3): ConvTranspose2d(320, 220, kernel_size=(3, 3), stride=(1, 1), padding=(1, 1))
    )
    (hyperlatent_likelihood): HyperpriorDensity()
  )
  (Discriminator): Discriminator(
    (context_conv): Conv2d(220, 12, kernel_size=(3, 3), stride=(1, 1), padding=(1, 1), padding_mode=reflect)
    (context_upsample): Upsample(scale_factor=16.0, mode='nearest')
    (activation): LeakyReLU(negative_slope=0.2)
    (conv1): Conv2d(15, 64, kernel_size=(4, 4), stride=(2, 2), padding=(1, 1), padding_mode=reflect)
    (conv2): Conv2d(64, 128, kernel_size=(4, 4), stride=(2, 2), padding=(1, 1), padding_mode=reflect)
    (conv3): Conv2d(128, 256, kernel_size=(4, 4), stride=(2, 2), padding=(1, 1), padding_mode=reflect)
    (conv4): Conv2d(256, 512, kernel_size=(4, 4), stride=(2, 2), padding=(1, 1), padding_mode=reflect)
    (conv_out): Conv2d(512, 1, kernel_size=(1, 1), stride=(1, 1))
  )
  (squared_difference): MSELoss()
  (perceptual_loss): PerceptualLoss()
)
18:49:27 INFO - <module>: ALL PARAMETERS
18:49:27 INFO - <module>: Encoder.conv_block1.1.weight - torch.Size([60, 3, 7, 7])
18:49:27 INFO - <module>: Encoder.conv_block1.1.bias - torch.Size([60])
18:49:27 INFO - <module>: Encoder.conv_block1.2.gamma - torch.Size([1, 60, 1, 1])
18:49:27 INFO - <module>: Encoder.conv_block1.2.beta - torch.Size([1, 60, 1, 1])
…
